model.tflite (tflite, 382165 bytes, 10 tensors)

sequential/conv2d/BiasAdd/ReadVariableOp f4 [32]
00000000: 9865 bbbe c4e5 8dbe 7d5d 9ebd 8850 00bc
00000010: 38b6 7fbd 1cee 52bd f49c 35bc 4bdf 57be
00000020: 02ba 113e 53b4 75be d854 39be a09e b1bc
00000030: 9bc9 c9bd faba 13be 6cb5 39be 981d 8ebe
00000040: 7fdc e93b bc39 d4bc f18f b0bd c44f 913c
00000050: cde7 19bc 2123 5f3c 40da a13d 0621 33be
00000060: aa95 1cbe 2424 523d 942e 6bbc 4fad 8ebd
00000070: 45be 8dbe 53d8 83bc 9448 83be 5120 363d
-0.36600947 -0.2771436 -0.07732675 -0.0078317 -0.062429637 -0.05149661 -0.011084784 -0.21081273
0.14231113 -0.2399457 -0.18098772 -0.021682084 -0.09852906 -0.14426795 -0.18135613 -0.27756953
0.007136881 -0.025906436 -0.08621205 0.01773823 -0.0093936445 0.013619215 0.07902956 -0.17493066
-0.15291467 0.051303998 -0.014354367 -0.0696665 -0.27684227 -0.016094362 -0.2564131 0.044464413

sequential/conv2d_1/BiasAdd/ReadVariableOp f4 [64]
00000000: 2f93 163d 88fc 6cbd 5dc0 0bbd f7a6 eabb
00000010: 99f2 f5bd f465 8fbd 4404 42bd 054b 953d
00000020: aa96 7ebd 291b 8fbd 16b9 dabd e967 12be
00000030: 67be f7bc 8087 89ba 0827 22be 68f5 e03b
00000040: a11d 1fbd abd3 953d e466 b53d 0a9b 8fbd
00000050: 21de 383e 3bac 14be ff92 a73d b3b0 e2bd
00000060: 7d18 7cbd bbbf 45bc d58d 02be 72dc fc3d
00000070: cfc5 09be a622 f23d bdeb 9e3c 0040 a9bd
00000080: 84ce 90bb c6bf 4f3c 2932 c93d e7f7 4a3d
00000090: 246c 643d 7268 023e 34c6 d03a 675a a8bc
000000a0: 7926 22be 2a94 86bd 1c8c a53d 5f1d c73d
000000b0: 240a 663d e9f2 90bd cd4b 8cbd 0c07 53bd
000000c0: 4fe0 0cbe 0d67 b33c af99 2b3e df3f ca3a
000000d0: 6c1e da3d 00a1 343c 6bd6 42bd 0d89 c8bd
000000e0: 0fa5 1cbd 4020 b03d d843 05be aeda 22be
000000f0: 603b 723c 6c8f d73c b84b 3cbd f45c 31bd
0.03676146 -0.05785802 -0.034119 -0.007161017 -0.120091625 -0.07001868 -0.04736735 0.072896995
-0.062155403 -0.06987602 -0.106798336 -0.14297451 -0.030242158 -0.0010492653 -0.15835202 0.006865192
-0.038846616 0.07315763 0.088575155 -0.07011993 0.18053485 -0.14518826 0.08182334 -0.11068859
-0.06154679 -0.012069638 -0.12749417 0.12346734 -0.13454364 0.11823015 0.019399518 -0.0826416
-0.00441915 0.01268 0.098240204 0.049552824 0.055767193 0.12735155 0.001592821 -0.02055092
-0.15834989 -0.06571229 0.08083364 0.09722399 0.056162015 -0.070775814 -0.06850395 -0.051520392
-0.13757442 0.021899724 0.16757844 0.0015430412 0.10650334 0.0110247135 -0.047567766 -0.09791765
-0.03824335 0.08599901 -0.13014162 -0.15903732 0.014784664 0.026313506 -0.04597065 -0.043301538

sequential/conv2d_2/BiasAdd/ReadVariableOp f4 [64]
00000000: ebcc c8bc fd6e e13d f571 243d adbc ea3c
00000010: 427e 12bc 6fba 033e fd55 e8bc 31fa 893d
00000020: 0f42 b23c 7e1f 10bc f789 7abc f24f 523d
00000030: 0cb7 a73c 4fa5 d93b 32a9 4cbc c213 aa3d
00000040: b7da 0e3c 68c7 1c3e 9534 6bbc c016 9fbb
00000050: 5833 d13d 3a3f 653d b16f 963d fa9c a73d
00000060: c96f fe3a 22fb 233b 6336 a63c 08c5 983c
00000070: a0d1 d63d 62db 863d 21b9 983b fe31 8e3d
00000080: c055 e53d 6a1a e63d 280b a73d 1dca 423c
00000090: d81f 93bb 4589 163e b3a7 5dbd d25f b13d
000000a0: 1778 ec3c e09b 2abd 07fb a03d 4fc8 a83d
000000b0: 8fed d23d dabf c23a 708a 06bd 8053 6cbb
000000c0: 2ca2 0f3d e5ae 183d 489a 7a3d 14c0 f53d
000000d0: 972f ab3d 7bb0 363d c7ec 8d3d 2945 073d
000000e0: 2ba4 9ebc 53d3 8abd 907d 243e c6ac 1a3e
000000f0: 074f 053d d51c e53c 2c20 0d3d 7173 0a3d
-0.024511775 0.110074975 0.04014774 0.02865442 -0.008941235 0.12864088 -0.028361315 0.06737173
0.021760015 -0.008796571 -0.015291682 0.051345773 0.020473026 0.006642021 -0.012491511 0.0830455
0.008719138 0.15310442 -0.014355798 -0.004855007 0.10214871 0.0559685 0.07345522 0.08184238
0.0019411977 0.0025021513 0.020289605 0.01864864 0.104892015 0.06584813 0.004660741 0.06943129
0.11197996 0.11235507 0.08156425 0.011889008 -0.00448988 0.14700802 -0.05411501 0.086608544
0.028865857 -0.04165256 0.0786038 0.08241331 0.10299217 0.0014858202 -0.032846868 -0.0036060512
0.03506677 0.037276167 0.06118229 0.119995266 0.083586864 0.0446019 0.06929927 0.03302494
-0.01936539 -0.06778588 0.16063523 0.1510497 0.03254607 0.02796785 0.03445451 0.0338015

sequential/conv2d/Conv2D f4 [32, 3, 3, 3]
00000000: aed0 703d 1166 113d 916b 803d fcb4 b43d
00000010: 8bdd 043e cc90 eb3d 498c 66bd bc88 ce3c
00000020: a990 a83d 06b2 05be efe1 e7bc 2722 943d
00000030: 59c3 443d 82e6 263b b480 04be 2ec7 5c3d
00000040: c9f8 863c 0a0b 973d ae55 ebbc 6560 f7bd
00000050: 34ba 5abe e82b 75bd 28a3 8cbd 706c 06bc
00000060: f570 343e 5047 8d3b ffb8 263e 8473 2d3e
00000070: bcaf 8d3c 35b2 4ebc 08e1 a93d bba0 e3ba
00000080: fd54 00be f577 993d 41ff 00be bfb5 a8bd
00000090: 0317 89bd a33e ca3d 9d80 df3d 306b 62bb
000000a0: 8c38 dd3d b01e 71bd 0359 7dbd 42e2 af3c
000000b0: f7f2 fabc 7e33 6bba d307 ab3d 090f 63bd
000000c0: 63dd 7a3d 7fe5 01bb 5fd1 193e c63e 1d3c
000000d0: 1aec 843d 60f9 d23d f695 123e 57fe f0bb
000000e0: d0bb e83d 8d75 9abd c117 8c3d a828 66bd
000000f0: 9441 87bc 2e7f 33be da38 4cbe 293f c33d
00000100: 2061 fd3d 7588 e33d 5bbe 48bd 49e0 123e
00000110: 2b46 5d3c a467 6bbe 7e69 c3bd 43a5 84bd
00000120: b977 733d 8729 10bd fc63 a7bd 72a9 d83b
00000130: 1a70 70be fbac 23be 78c9 febd 2a69 2abe
00000140: 558f 12be 8c7e e23c 4bde 62bd e91e 813d
00000150: 4210 1dbd 9ea1 013e c720 ba3d dcd6 d83d
00000160: 938b 383e bbbf 623d b320 f43c a053 65bc
00000170: c6e8 1bbe 63dd 5fbd af1a 29bc f0bd 503d
00000180: 2d9f 423d 97af bb3b c3cb 01bc 2a80 35be
00000190: 0b9a 9cbd 8e80 65be 9689 f4bc 7060 42be
000001a0: 4c61 4dbe c79f 51be 9988 5fbe 72e7 48bd
000001b0: bafd 81bd d9ac c9bc 14ac db3d dd5a 48bd
000001c0: da0e 003e 84a7 ee3d bac8 ae3c 4c61 1ebe
000001d0: b22f 8e3d 0f78 ab3d e3e5 913d 9f6b 653c
000001e0: 2e12 ee3c 8378 e83d 4124 d83d 7f50 09bc
000001f0: cf44 403e 8d86 8dbd 7a72 bbbd 42b8 18be
00000200: 3c18 cebd 7088 43bd 9f16 d8bd ef5b 70bd
00000210: def4 173e 183b bfbd 7c6c 41bd 434f 85be
00000220: cc2b 16be c211 bcbc 9f25 cebd bf7d bd3d
00000230: c460 96bc c6ff 183e 300b 18bd 4f66 923d
00000240: c061 12be cdf9 b2be 9cee 1abe b09f 06bc
00000250: 387c a3bc fa2a 13bd 48c6 303e 6c52 0e3e
00000260: 6859 87bc f606 3cbe fc7c 4dbe 4f91 5a3d
00000270: ffc4 21bd 0ae6 43bd 9775 ffbc 5e2b a3bd
00000280: 2485 1b3d be96 f33d 879b 1e3e fa3a 5a3d
00000290: 8c1c 52bd 8621 863d 9cd4 f33d 7499 c53d
000002a0: 2a21 e93c 13f2 123e b2fb 5f3c b024 3d3d
000002b0: 3771 f7bd 39b9 11be 3938 abbc dec5 a33d
000002c0: 4719 c4bc b2bc 5a3d 2c99 333d 46fa 3b3c
000002d0: 6d2e 3fbe 1dae dabd 39a2 843c 0342 62be
000002e0: 2d50 27be 0fc5 983a 5a57 21bd c437 64be
000002f0: 3c8e bbbd f321 8abd 7bde dc3d 0531 7a3c
00000300: 5868 ccbd 5db3 223d c5e4 2ebb d5d3 dfbd
00000310: 57cf 6cbe 7dcd 14bd 6fd3 013e d873 003e
00000320: 561a 013e 992e 0dbc 29a6 86bc ea9d 173d
00000330: f7f7 97bd 16d2 5bbe e40a 0cbe 9ff7 be3c
00000340: 785b 863c 83d1 073d 03ac 123e d562 68bd
00000350: d7d4 653d 991c 913d 4b07 973d 970d d2bd
00000360: 2d9c 4ebe 35a7 46be f203 93be b19c cb3d
00000370: f914 e33d 4c6b 413e 2a14 343e bef8 0f3e
00000380: 4ba6 c63c a4c5 d6be 2abb abbe ceff d6be
00000390: 0afc e5be 2678 d6be bc88 c5be 09e6 b4be
000003a0: d1a7 b3be 699d c4be eb67 353e cf5b fb3d
000003b0: 8057 8e3c f08d 813d 6dc7 1f3e 3898 bd3d
000003c0: 3bd4 75bd 8cee 87be a3b9 d5bd f9c5 313d
000003d0: 1114 67bd f69f ec3d f7ee 77bd c31d d23d
000003e0: 8a00 803d 8718 a13d 3a2b f33b 1a1d 0cbe
000003f0: 1691 c7bd dce4 153d 5dec 4d3c 2713 e53d
0.058792762 0.03549773 0.06270517 0.088235825 0.12975137 0.11502227 -0.05628613 0.025211684
0.08230717 -0.13056192 -0.028305976 0.072330765 0.04803786 0.0025466983 -0.12939721 0.05390089
0.016476052 0.073751524 -0.028727379 -0.12078933 -0.21360093 -0.059856325 -0.06867057 -0.008204564
0.17621215 0.0043114796 0.16281508 0.16938597 0.01729571 -0.01261573 0.082948744 -0.0017366627
-0.1253242 0.07493583 -0.12597372 -0.0823779 -0.06693842 0.09875228 0.10913203 -0.0034548752
0.10801801 -0.058867157 -0.061852466 0.021470193 -0.030633433 -0.00089722115 0.08351102 -0.05543426
0.061246287 -0.0019820628 0.15021275 0.009597486 0.06490345 0.10301471 0.14315018 -0.0073545384
0.113639474 -0.07541952 0.06840468 -0.056191117 -0.016510762 -0.17528984 -0.19943562 0.09533531
0.12372041 0.111100115 -0.049009662 0.1434337 0.013505499 -0.22988755 -0.095416054 -0.06476834
0.05944035 -0.035195854 -0.081733674 0.0066119963 -0.23480263 -0.15983956 -0.12440771 -0.1664168
-0.1431249 0.027648233 -0.055387776 0.06304724 -0.038345583 0.12659308 0.09088283 0.10587856
0.18021993 0.05535863 0.029800748 -0.013996989 -0.15225515 -0.05465449 -0.010321303 0.05096239
0.047515083 0.005727719 -0.007922116 -0.17724672 -0.07646569 -0.22412321 -0.029850762 -0.189821
-0.20056647 -0.20471106 -0.21829452 -0.04904885 -0.063472226 -0.024618553 0.10726181 -0.04891478
0.12505665 0.11653045 0.021335948 -0.15466803 0.06942691 0.08372509 0.071239255 0.01400271
0.029061403 0.11351111 0.1055379 -0.008381008 0.18776248 -0.06910429 -0.09152694 -0.14914039
-0.10063216 -0.04773754 -0.1055119 -0.058681425 0.14839503 -0.09337443 -0.0472226 -0.26037034
-0.14665145 -0.022957686 -0.100657694 0.092525 -0.018356688 0.1494132 -0.037120044 0.0714842
-0.14295101 -0.34956208 -0.15130085 -0.008216783 -0.019956693 -0.035929658 0.17263138 0.13898629
-0.016522124 -0.1836203 -0.20067209 0.053361233 -0.03949451 -0.047826804 -0.031184 -0.07967256
0.03796877 0.11893986 0.15489016 0.0532789 -0.051296756 0.06549363 0.119057864 0.096484095
0.028458197 0.14350156 0.013670849 0.046177566 -0.12082141 -0.14230813 -0.020900832 0.079967245
-0.023937834 0.05340261 0.043847248 0.011473244 -0.18670054 -0.10677741 0.016190635 -0.22095494
-0.16339178 0.0011655408 -0.039389946 -0.22286898 -0.091579884 -0.067447565 0.10784622 0.015270476
-0.099808395 0.039721835 -0.002668665 -0.10929076 -0.23125969 -0.03632878 0.12678312 0.12544191
0.12607703 -0.008617067 -0.016436653 0.037015833 -0.074203424 -0.2146686 -0.1367603 0.023311434
0.016401038 0.03315879 0.1432343 -0.05673488 0.056111183 0.07085533 0.07374438 -0.10256498
-0.20176764 -0.19399722 -0.28713948 0.09941996 0.110879846 0.18888587 0.17585817 0.14059731
0.024249217 -0.41947663 -0.33541232 -0.41992038 -0.44918853 -0.4188854 -0.38580883 -0.35331753
-0.3508897 -0.38401344 0.17715423 0.122733705 0.017375708 0.063259006 0.15603419 0.09257549
-0.060016852 -0.26549184 -0.10435798 0.043401692 -0.05641562 0.11553948 -0.06053063 0.10259583
0.06250103 0.07866006 0.0074209245 -0.13682976 -0.0974447 0.03659521 0.01256856 0.11185294

sequential/conv2d_1/Conv2D f4 [64, 3, 3, 32]
00000000: c07e 1fbe f23b ee3d e7c8 b0bd ee4b 9ebe
00000010: e2d0 2fbe 4f89 02be 025e 6bbe ae0a a3bc
00000020: 7414 23bd e0b5 d23d 9344 6e3d d63b 52be
00000030: 81be 953d e0da b4bd ae76 41be f68c 903d
00000040: c490 eb3d bdd6 46be 63a5 1fbd d238 603c
00000050: b4e2 0bbe de29 c33d aa8b 863d aad9 093d
00000060: 90d6 36be 22c2 53bc 9914 623d ad22 fd3d
00000070: 6399 89bc 4fbd 673d f5e3 f33d 61d7 74be
00000080: aa8c 0dbe fe30 833d 7999 5abd 7912 52bd
00000090: 7d01 0f3d 3f05 95bd 1b0e 4fbe 6662 cb3d
000000a0: 9cec af3d 5874 813d 07a6 863c aac0 32be
000000b0: 5f68 073e 371a 9fbc 38c2 18be c679 7fbd
000000c0: 8aee 3bbc 133a bfbd 730e a1bd 3ff1 a63d
000000d0: 8758 b5bd d1bd 9c3d a8a3 14bd a35d 05bc
000000e0: 9f37 babd f4ac 983d ba2e 813b 5207 793d
000000f0: 620b e93d 3601 5cb9 f572 e0bc 03be d0bd
00000100: ba9b a23d a3db 093e b8dc bfbb 3f8e 893a
00000110: 4768 f6bd 3690 13bb aee7 78bd 1326 df3c
00000120: 77d7 b23c ad4d 1e3d 18cd 853d 3377 9ebd
00000130: 8c6f 133d 618b 643d a1f0 c9bc d0ce 17be
00000140: 81a1 823d 22ab 8dbd e6fe 903c 103a 2d3e
00000150: 5d8a 98bd bc13 953d 7087 99bc cdeb a03d
00000160: 9fc0 0c3c d308 3c3c 45d9 c1bd d60f e23d
00000170: a025 2c3d 5d97 153d d6cd b83d ceed 12be
00000180: f2bb 5abd 451c 0cbd 0880 ccbd 3cfe 04be
00000190: 1421 fa3d d9c9 17be 8ad5 333e 332d e53b
000001a0: 85d5 38be 5d5a 733d 4b7d 11bc a80b 213d
000001b0: e428 84bc a24b f6bc 9845 8c3c 96eb 9abd
000001c0: 2fa6 dc3d 80b9 9bbc 0319 02be a968 ffbd
000001d0: 4f4b 873c 5c4e 493d 7ced 58bd 28e4 18bd
000001e0: a640 c3bd 7513 17be cfcb 543c dd2e 2dbe
000001f0: 79a7 19be bd77 683d d894 8f38 7fde 91bd
00000200: 6c55 89bd d8b4 143d 94a8 e73b 8719 fc3d
00000210: b86b 1f3d a8af 42be 02c4 aebd 073f 3cbd
00000220: f11d 3dbe 6d68 fc3d 39e1 63bd b727 84bd
00000230: 247e e0bd 7fe4 34be 21cf 03be ee53 e43d
00000240: 6e0a ddbc ad7e 41bc 8732 e8bd 4173 debd
00000250: eb2b 65bd 1cee ce3c 6e74 823d c647 88bd
00000260: 7f62 05be f190 f3bd f51f b63c 9e48 bdbd
00000270: 9ede 9ebc b88f aebc 178b 20be 5a1e f1bd
00000280: 2561 e73d 801a a7bd 54bc 263e 89cf 7f3d
00000290: 7662 203b 5dca 62be 72b5 29bd 917b 76bd
000002a0: 76cc 38be 8031 2bbc 53c0 3cbe 9101 863d
000002b0: cab2 0fbe 15cf 55bd 21a7 2cbe 659b 36bd
000002c0: fefa 2ebd dd38 84bd 3f8a 1a3c d41c 36bb
000002d0: 6d79 603d 4117 0ebe 3cc5 20be 9094 a4bc
000002e0: 47bf e93b a623 7abe 25a3 a5bc 33c9 1f3d
000002f0: 74c1 babc 521d eebc 0307 2c3d a6d2 133e
00000300: cfb1 353e 928d 83bd d10b 673c 8f3c 983c
00000310: b726 f83d 9462 30bd 090f 903d 11ed c5bd
00000320: 54b1 7b3d 5860 163d a618 96be 18e5 1e3d
00000330: ade4 eb3b dcf9 3fbe 55d2 c33c d1f8 8f3d
00000340: cdf1 aabd f16f c13d da0e 1cbe 3739 a7bd
00000350: 49c8 d43d d9ed 95be ad80 66be 6714 61be
00000360: 7e52 02be 1677 dabc 8f33 33bd d567 a0be
00000370: caca 25bd 2724 3abb 5a41 21be 62d3 9c3c
00000380: dedb b13d 7678 a2bc 925f e6bc b370 a73c
00000390: 3438 3dbb 210b 1cbe d7a0 93bd 2fe2 38be
000003a0: 75cf 813d baaa 693d 3001 e6bd 1ea1 a3bc
000003b0: 7f3f 71be 0bdc f7bd d718 93bd f5d1 04be
000003c0: 8623 17be 23fb 6bbd 7a3c f7bd 823e 47be
000003d0: e814 70bc 7228 33be 25ae eebc f2a0 dfbd
000003e0: 6244 90bd 3db4 7ebe 4f27 9bbd bc8d 41be
000003f0: 1a6a 8dbd 2acc 143d 8bc3 2abe 19c2 103c
-0.15575695 0.116325274 -0.08632069 -0.30917305 -0.17169526 -0.12747692 -0.2298508 -0.019902553
-0.039814427 0.10288596 0.058170866 -0.20530638 0.07311726 -0.088308096 -0.18892929 0.07058136
0.11502221 -0.19417854 -0.038976084 0.013685422 -0.13660699 0.0952947 0.065696076 0.033654846
-0.17855287 -0.012924703 0.055195425 0.123601295 -0.016796773 0.056577023 0.11908714 -0.23910286
-0.1382319 0.06405829 -0.05336902 -0.05128715 0.03491353 -0.07276391 -0.20220225 0.099308774
0.085900515 0.06321019 0.01643659 -0.17456308 0.13223408 -0.01942168 -0.14917839 -0.06237199
-0.011470446 -0.09337249 -0.07864084 0.08151483 -0.08854776 0.07653392 -0.036288887 -0.0081400005
-0.0909264 0.07454863 0.003942338 0.060797997 0.11379124 -0.00020981286 -0.027398566 -0.10192492
0.07939859 0.13462691 -0.005855169 0.0010494663 -0.12031608 -0.0022516376 -0.060767822 0.027239835
0.021831257 0.038648296 0.06533259 -0.07737579 0.03599505 0.055796985 -0.024650874 -0.14824986
0.06378461 -0.069174066 0.01769967 0.1691668 -0.07448266 0.07279155 -0.01874134 0.078574754
0.008590846 0.011476713 -0.09465269 0.11038177 0.04202807 0.036521304 0.09023635 -0.14348528
-0.053401895 -0.034206647 -0.099853575 -0.12987608 0.122133404 -0.14823093 0.17561927 0.0069939136
-0.18050201 0.05941235 -0.00887997 0.039317757 -0.01613278 -0.030065361 0.017123029 -0.07564466
0.107738845 -0.019009352 -0.12704854 -0.12471134 0.016515402 0.049146995 -0.052960858 -0.03732696
-0.09533815 -0.14753516 0.012988045 -0.16912408 -0.15005292 0.056754816 6.846496e-05 -0.07122516
-0.06705746 0.03630528 0.0070696566 0.123095565 0.038921088 -0.1901232 -0.08533479 -0.045958545
-0.18468453 0.12324605 -0.05563471 -0.064528875 -0.109615594 -0.1766529 -0.12871982 0.11148821
-0.026982512 -0.011809987 -0.11337762 -0.10861827 -0.055950087 0.025260024 0.063698635 -0.06654315
-0.13025855 -0.1189288 0.022232035 -0.09242366 -0.019393262 -0.021308765 -0.15678059 -0.11773367
0.11297826 -0.08159351 0.16282779 0.06245378 0.002447275 -0.22147508 -0.041432805 -0.060176436
-0.18046746 -0.010448813 -0.18432741 0.065432675 -0.14033046 -0.052199442 -0.1686063 -0.04458179
-0.042719834 -0.06456158 0.0094323745 -0.002778818 0.0548033 -0.13876058 -0.15700239 -0.020090371
0.0071333977 -0.24427661 -0.020219395 0.039010238 -0.022797324 -0.029066715 0.041998874 0.14435825
0.1774361 -0.06423487 0.014101938 0.018583564 0.12116759 -0.04306276 0.07034118 -0.096643575
0.06144841 0.036712974 -0.2931568 0.0387927 0.007198891 -0.18747658 0.023904005 0.0702988
-0.08346901 0.09445179 -0.1524004 -0.0816521 0.10389764 -0.29283026 -0.22510023 -0.21980439
-0.12726781 -0.026668113 -0.043750342 -0.31329218 -0.040476598 -0.0028402896 -0.15747586 0.019143764
0.086845145 -0.01983283 -0.028121743 0.020439481 -0.002887261 -0.1523862 -0.07208412 -0.18055032
0.063383974 0.057047583 -0.11230695 -0.019974288 -0.23559378 -0.12102517 -0.07182472 -0.12970717
-0.14759645 -0.05761255 -0.12072082 -0.19457439 -0.014653422 -0.17495897 -0.029135773 -0.1091937
-0.07044293 -0.24873443 -0.07575857 -0.18901724 -0.06905003 0.03632752 -0.16676156 0.008835339

sequential/conv2d_2/Conv2D f4 [64, 3, 3, 64]
00000000: af90 523d c24a 263d 8ab3 15be 4b38 fcbc
00000010: ea34 813d 9a9e 933d 5d1a 123d c1ca 0c3d
00000020: 80ae b23d 2f59 1c3d 1782 363d 3060 013e
00000030: ba7b d53c 1c35 1a3e 880e 993c 2c22 0e3d
00000040: 06a7 ec3d c95b c33d 593a 90bc 2d9f 943d
00000050: 0ebd 993d 226c 403d 1aa4 863b 91a3 bb3d
00000060: b808 133e 401f a53c 36e5 2a3e 9d77 5dbd
00000070: 85c2 dabc 807f 123d 8954 f43c 3a8b cd3b
00000080: 6928 ed3d e096 a6bc 8e1e 853c 84c9 c5ba
00000090: 4039 a2bd 8157 49bd 118d 28be cbbe a0bd
000000a0: 15e3 6cbd 0863 b93c 2f3b d33d 1018 f03c
000000b0: 06d6 3cbd 3742 a23d 391e 5cbd 0cc6 4cbb
000000c0: c2a5 773d 83e9 2a3d 7854 be3d 406a 193d
000000d0: 3c75 093b 625f b13d 6270 943b b806 123d
000000e0: 6686 a13d 8e8c b83c d8f2 cdbc d1bd c33c
000000f0: c34b 193e 223d 1f3c f293 5abd 1433 88bc
00000100: 94e9 a33b 7c1f 8f3d 0a44 463d 2c61 4fbc
00000110: ccff b43c 1c68 a1bb 2158 51bc 2669 ef3c
00000120: dba9 853d baf3 123d 87d8 08be b97b 9b3d
00000130: 174c 18be e7a5 763d 2d39 43bd 303c b23d
00000140: 2969 a43d 043e d1bd 6338 80bd de5b a8bd
00000150: 5498 903b 3073 69bb 6b0b ddbc c85a 72bd
00000160: 2141 62bc 07fc 1cbe 6b05 e43d 3f30 27be
00000170: 7248 91bc 0cb5 583b 5a29 b8bc 5add b83d
00000180: 56ec 0dbd 02b2 553c defc 78bd b8f3 9d3d
00000190: 5c3b 5a3d f085 75bc 536f 50bd cdf6 373d
000001a0: bc62 02bd 6bb2 c1bd 5700 573d 5630 bf3c
000001b0: 8474 ff3c 9302 503d 13e9 2d3d 2a94 63bd
000001c0: 424a 073e 2a4a 91bd 122f 543c db88 4c3d
000001d0: b3af 27bd dda0 0e3e eae4 2e3d 29fa 97bd
000001e0: e559 e4bd d673 b3bd d948 e0bc 6b9b e6bc
000001f0: b7b5 60bc 4f49 50be 8803 053d fd3f e4bb
00000200: dfe2 9abc 8112 ffbc 8b58 cd3d f9fe e33d
00000210: 8296 2c3c bd9e 8a3d f521 af3b 0417 0fbd
00000220: b706 6dbd 5f5e cabc ce14 f3bc f75f bf3c
00000230: 4948 14be 1362 afbc 814a c3bc fdbb fb3c
00000240: 889e cdbc 02df 2c3d c63e 643d 5180 96bd
00000250: a51f b0bd 249e 153d 868d e1bd 33ed 303d
00000260: db26 a0bd d82b dcbd cb74 ee3a 4fda c2bd
00000270: 4564 98bc 4642 0cbe 8989 1f3d 0966 2ebe
00000280: b372 b03d 7a3f 1dbe 29fd 80bd 4f46 b3bc
00000290: cfba 983d f1dc 433e 17da 973c a965 293c
000002a0: ea71 08bd 078e 47be de20 c6bb 08c7 6e3c
000002b0: 8cf4 48bd 3608 f63d 0bf3 a93d 31f2 f43c
000002c0: e7c7 6f3d 4c25 933b a4e0 303d 74d3 d23d
000002d0: 46cd ba3d 810d 343d 5e39 b83d a3b6 143c
000002e0: 88d3 9cbd 0520 633d 9698 28bd f11d 3e3d
000002f0: 1721 21bd bd8e 063d 277f 313d 6922 cdbd
00000300: fa12 a9bd 09f5 3bbe b4dd 97bd 1ead 3e3a
00000310: 6143 f0bc b602 20be 11c3 17bd b34f 1a3d
00000320: 5a55 7b3c 9632 78bd 82ba afbd b030 913d
00000330: 12d2 553c 53aa 993d 77ef 38bd aa9b e03d
00000340: b5a0 b53d 5958 3ebd 751f c13d e0d6 b1bc
00000350: 73ea f5bd 284c a0bc cac8 0c3d aa1b 3abe
00000360: 166a cebd 6a0a 20be 9aee d4bc d713 88bd
00000370: 8c99 c1bd 0be7 843d baad 89bd 8ec0 6abc
00000380: f042 6abe 1066 0f3d e8f3 2c3d 8595 8e3d
00000390: 9a74 063e 5da1 9dbd 8955 933c e736 dcbd
000003a0: 3e25 a03c 442d 31be fdbb 1a3e 5c67 e03c
000003b0: a9d7 313d af1c 8a3d bdea a83d 52c6 9ebe
000003c0: fdc7 253c efa7 cdbe aaf0 993d a951 9abe
000003d0: 325f dd3d d064 003e 04f7 173d 6b8f 653d
000003e0: 4ca0 193e 2c81 963d b669 a43c 2356 a7bd
000003f0: 9b8c 0bbd 10ce abbe 8bda a43b fe23 a23d
0.051407512 0.04059864 -0.1461927 -0.030788561 0.06308921 0.07207985 0.035669673 0.03437305
0.087246895 0.03817099 0.044557657 0.12634349 0.026059974 0.15059322 0.018683687 0.034700558
0.11555295 0.09538991 -0.017605947 0.07256923 0.075067624 0.046978123 0.004108918 0.09162057
0.14358795 0.020156503 0.16689 -0.05406915 -0.026704082 0.035766125 0.029825466 0.0062727006
0.11579973 -0.020335615 0.016249921 -0.0015089964 -0.07921076 -0.049155716 -0.16460063 -0.07848891
-0.05783375 0.02263023 0.10314023 0.029308349 -0.046102546 0.07922786 -0.05373976 -0.0031245975
0.060460813 0.0417266 0.09293455 0.037454844 0.0020974418 0.08660771 0.0045299986 0.03565094
0.078869626 0.02252796 -0.025140211 0.023894222 0.14970307 0.009719165 -0.053363748 -0.016625918
0.00500221 0.06988427 0.04840473 -0.012657445 0.02209463 -0.004925741 -0.012777359 0.029224943
0.06526538 0.035876967 -0.13363849 0.075919576 -0.14872776 0.06021681 -0.04766195 0.08702886
0.0802787 -0.10216907 -0.06260755 -0.08220647 0.00441269 -0.0035621636 -0.026982984 -0.059168607
-0.013809473 -0.15330516 0.11133846 -0.16326998 -0.01773474 0.0033066897 -0.022480655 0.090265945
-0.034649216 0.013042929 -0.060788028 0.07712501 0.053279266 -0.0149855465 -0.050887417 0.044913102
-0.03183244 -0.09457859 0.05249056 0.023338478 0.031183489 0.050783705 0.042458605 -0.055561222
0.13211921 -0.07094224 0.012950676 0.049935203 -0.040939044 0.13928552 0.04269878 -0.07420761
-0.111499585 -0.08762328 -0.027378486 -0.028150281 -0.013715199 -0.20340465 0.03247407 -0.006965636
-0.018907009 -0.031136753 0.10026654 0.111326165 0.010533931 0.06768558 0.005344624 -0.03493406
-0.057867732 -0.024703203 -0.029673006 0.02336119 -0.144807 -0.02140907 -0.023839237 0.030729288
-0.025100008 0.042204864 0.055723928 -0.07348693 -0.08599786 0.036527768 -0.110133216 0.04319496
-0.07819911 -0.1075055 0.0018192766 -0.09514295 -0.0186025 -0.13697156 0.038949523 -0.17031111
0.08615627 -0.15356246 -0.062982865 -0.021884112 0.07457506 0.19127251 0.01853661 0.010339179
-0.033311762 -0.19487773 -0.0060463985 0.01457382 -0.049061343 0.12013285 0.0829831 0.029900642
0.05854025 0.00449053 0.043182984 0.10294238 0.09121184 0.04395819 0.08995317 0.009076747
-0.07657534 0.055450458 -0.041161142 0.046415273 -0.039338198 0.03285097 0.043334153 -0.10016329
-0.082555726 -0.18355192 -0.074153334 0.0007273721 -0.029329004 -0.15626034 -0.037051264 0.037673663
0.015340174 -0.060595118 -0.085804954 0.070893645 0.013050573 0.0750319 -0.045150246 0.109671906
0.08868543 -0.046470974 0.09429828 -0.021708906 -0.12007608 -0.019567564 0.034371175 -0.18174616
-0.10078828 -0.15628973 -0.02599268 -0.06644409 -0.09453115 0.064893804 -0.06722589 -0.014328135
-0.22877097 0.035009444 0.042224795 0.06962112 0.13130417 -0.07696793 0.017985122 -0.10752659
0.019549008 -0.17302424 0.15110774 0.027393036 0.04341856 0.06743752 0.08247898 -0.3101068
0.010118482 -0.40167186 0.07516606 -0.30140427 0.10809173 0.12538457 0.037100807 0.056044977
0.15002555 0.07348856 0.020069938 -0.08170726 -0.03406964 -0.3355565 0.005030935 0.07917021

sequential/dense/BiasAdd/ReadVariableOp f4 [64]
00000000: 56cf 3e3d 4fd5 a1bc ebdf 04be f1e9 643e
00000010: cb03 2cbc 2e34 ef3d 5998 b2bd d21e b93d
00000020: e864 0d3d 94f9 ee3c 0efa b9bd 2b93 f63d
00000030: e511 2ebb 3c84 eb3d 92e5 13bd ec8c a9bd
00000040: 570f 273a 51c4 073e 46a4 a13c b121 74bd
00000050: 8056 073e c798 e23c 643a 4a3e f4c4 b13d
00000060: e4ed 793e a57e a83c fe8b 80bd 380b 933d
00000070: 5926 9f3d 72ec afbd cbb7 b23d db2d 083d
00000080: 6571 863d 7972 c7bd 0e3f 703d a7c5 3f3d
00000090: e049 413c caf7 a7bb 5145 723d bf0d 613e
000000a0: bd95 f2ba 6130 1c3d 1f78 583c 452a 5f3d
000000b0: 08a7 97bc 1c42 b9bd 3562 07be ddcc e9bd
000000c0: 1582 fe3d c8f9 e8bd 8e8f 313e 8c85 5abd
000000d0: e2ec 303d cc55 ee3d fec9 bb3d 3f58 933d
000000e0: 11a3 0b3e a12f c43c d746 243e d5aa 81bd
000000f0: 24db e23a b318 f93d 1a88 003d e0c8 b6bd
0.04658445 -0.019755034 -0.12976043 0.22354867 -0.010498951 0.11679874 -0.08720464 0.09039082
0.03452006 0.029171742 -0.09080897 0.12039789 -0.002656096 0.11499831 -0.036107607 -0.08278832
0.000637283 0.13258483 0.019731652 -0.059602443 0.13216591 0.02766074 0.19748837 0.08680144
0.24407154 0.020568201 -0.062767014 0.07179874 0.07770986 -0.0859002 0.08726462 0.033246856
0.06564597 -0.09738631 0.058653884 0.046819355 0.011797398 -0.0051259743 0.059148137 0.219779
-0.001850776 0.038132075 0.013212233 0.05448367 -0.018512264 -0.090458125 -0.13221057 -0.11416028
0.12427155 -0.11375767 0.17339918 -0.053350016 0.04319466 0.11637458 0.09169386 0.07194566
0.13636424 0.023948492 0.16042648 -0.06331412 0.0017307741 0.12162914 0.031379797 -0.089250326

sequential/dense_1/BiasAdd/ReadVariableOp f4 [16]
00000000: 017f 1f3c 32b5 1abc 3130 11be 6502 0d3e
00000010: 9af7 09be e46d 27be 97ab 12be 2855 b4bd
00000020: f701 2f3c e57d debc 1f97 7d3e 35e4 ee3d
00000030: 3d91 b0bc 7d55 cbbd 9d95 833d 2dc7 283e
0.00973487 -0.009442614 -0.1417854 0.13770445 -0.13473359 -0.16350514 -0.14323269 -0.08805305
0.010681621 -0.02715964 0.2476468 0.11664621 -0.02155363 -0.09928415 0.06425021 0.1648223

sequential/dense/MatMul f4 [64, 576]
00000000: 6912 b03c 5ba9 3f3e 6bd6 2b3b f3c5 d8bc
00000010: 1760 c53c 53d4 18bc 0451 2c3d e968 1bbd
00000020: 980e 2c3c cb68 dd3d e9c3 b63d 8557 1f3e
00000030: b575 213e aa99 e23c f749 04be 2f00 21be
00000040: 8c12 abbd 8dba 09bd 6f2f bf3e 5940 373e
00000050: 1144 2bbe 4880 2f3e c877 2c3d 11bd 1f3d
00000060: cdc6 42bd 4058 ed3d ad60 fc3d 0d1d bebd
00000070: 0f80 513d 1394 acbd 7d9b 363d 5d7a acbd
00000080: 3b68 e83c a62f 173e 14bb 9dbd 5ff2 bc3d
00000090: eb53 0c3e 3d66 0abe e603 dabd e0f1 793d
000000a0: 678c aa3d 0914 8e3c 1826 37bc 9525 80bd
000000b0: b5c4 2d3d 77e7 fe3d 902c 963d f1ba 28bd
000000c0: dc09 12be 329b a93d 1b25 b63d 2bea 633e
000000d0: c339 d83c 7e4a 923d aca7 853d 5a98 933c
000000e0: 870f 493e a6d6 bdbb 5f5d af3d c418 223d
000000f0: 5ec3 60be 4467 0f3d 51ea e63d b28f 1dbd
00000100: b544 b1bc 56f2 4b3d 143d 0c3d 8242 20be
00000110: 7ac2 2abd 6f21 253e e616 c5bd 6877 d2bd
00000120: 022a 1a3e c3d2 e23d 9ca5 353c 223d b33d
00000130: 18ee 7f3c 5ec4 1cbd 322f d63c 9ffe efbc
00000140: 60b6 5a3c 8db2 4bbe 3547 ae3d 2fa8 b33d
00000150: abcb dfbc c26a 823d 3efa 03be 0ab7 3f3d
00000160: 9595 753c 3141 983c d020 df3c 1c5a f3bc
00000170: 59f1 ad3d 4da3 c03d 7194 0bbd ec5f e23d
00000180: f1c6 513d 9e2b 063e 74a1 21bd b01d 1dbe
00000190: fc52 d1bd 3a5a f0bd cf6b 11be 5604 dd3d
000001a0: 7558 a1bd 4cef 9ebd 37c3 813d 889c e5bd
000001b0: 18c1 81bc 218b 9e3d 7519 5f3d b412 dcbb
000001c0: 7091 cbbd eb27 1c3d ad4c 96bc d30a bc3d
000001d0: bba6 e4bc fc12 c33c 2649 a03d 1dad c53c
000001e0: 3a93 cb3d 07a1 793d e99b 263e 1463 043e
000001f0: 5964 aabe 83a3 81bd c2d7 873d f271 f53c
00000200: cf33 b03d 7cb0 273b 5455 6abc 1e66 983d
00000210: 8a93 33bd 5f36 053d 13ba 3f3c 2a3e efbd
00000220: 69d8 303e 451d 19bd 6bc1 1abe fed9 f23d
00000230: a7cc cb3d 87ea 0bbc 5e9c 90bd d48a a7bd
00000240: b08e 50bd b1ed 233d a1f3 1f3d 2843 e53d
00000250: b078 033e eb67 db3d 55c9 1cbe dc09 d73d
00000260: 717e 0c3d 2cf2 3abc 9d1c 8d3d 0662 65be
00000270: bbce 613e 7426 30bd 50c5 39bd e974 3d3d
00000280: 8af7 d83c 7f2e fd3d bf57 4e3e 6e5f 8bbd
00000290: d769 63bd f9ba 54bc f178 c0be 1b69 03be
000002a0: 7834 7b3d 67a5 613c 5344 3abd 7ca4 77bd
000002b0: d1e1 023e 5bd2 9b3d c3e2 22bd fd89 863d
000002c0: 5813 1cbe 1375 433d 6a85 2c3e 8cb6 053d
000002d0: 247e 003e 7ea0 14bc b7f3 ec3d 79cd cf3c
000002e0: 0b26 d8bc 2a9c 983d f567 55bd 93b4 073e
000002f0: 252d 31be ca5c 56bd f680 27bd 12c7 b7bc
00000300: a93c 7f3c a9f4 39bd 1421 adbd 22ac fe3d
00000310: f43d 17be 0eb0 c93c 61ee 903d 0b0a 3a3c
00000320: 6bbb 4b3e 3ff5 ee3d 4488 5fbe 033c 673c
00000330: fba2 163d f80e 83bc 566f 1ebc 9b49 1dbe
00000340: 8780 8bbd fac6 1e3e aa97 0bbd f4f7 213c
00000350: 8dc5 76bb 9371 d8bc 7715 2abd 4144 1c3e
00000360: c4fa 6b3c 16a9 833d 4629 963d ce1c 57bb
00000370: e6a3 283e e65b ca3d 29d3 fdbd bbd7 0fbd
00000380: c3a4 0f3e ab42 e0bb 7a5c adbd 5fff 4bba
00000390: 62d5 473d ca37 13bc d863 5cbe 7400 173e
000003a0: f1d5 15be bd86 843d 4188 0dbd 76de aabb
000003b0: f257 d43d 47d7 b53e 3266 293d 21f7 eabc
000003c0: 66fe 1e3e 5a07 b1bd 66de 003e 78fa ad3d
000003d0: dbfd 683d 3f98 b93c cf28 00bd 6ed3 b9bd
000003e0: 6ee5 a1bd f412 c7bd 11e1 06bd 1fbd bcbc
000003f0: c5b4 afbc 7400 2bbe b3b3 eb3d 69df 24be
0.021493154 0.18716948 0.0026220332 -0.026461577 0.02409367 -0.009327966 0.04206945 -0.037941847
0.010501526 0.10811003 0.08924086 0.1556073 0.15767558 0.027661163 -0.1291884 -0.15722726
-0.08353147 -0.033625174 0.37340876 0.1789564 -0.16725184 0.17138779 0.04210642 0.038998667
-0.047552872 0.11589098 0.12323127 -0.09282885 0.051147517 -0.084266804 0.04458188 -0.084217764
0.028370013 0.1476427 -0.07701698 0.09225916 0.13703887 -0.13515563 -0.10645275 0.061021686
0.08327561 0.017343538 -0.011178516 -0.06257168 0.042423923 0.12446492 0.07332718 -0.041193906
-0.14261574 0.08281554 0.08893796 0.22257297 0.02639473 0.071431145 0.065261215 0.018016983
0.1963483 -0.0057934104 0.08562731 0.0395744 -0.21949527 0.03501059 0.11275161 -0.038467117
-0.021639207 0.049791656 0.034237936 -0.1565037 -0.041689374 0.16126035 -0.09623508 -0.10276681
0.15055087 0.11075356 0.011086848 0.087518945 0.015620731 -0.038273208 0.026145551 -0.029296217
0.013349146 -0.1989233 0.085096754 0.08772313 -0.027318796 0.06368019 -0.12888429 0.04680542
0.014989276 0.018585773 0.027237326 -0.029706053 0.08493299 0.09406147 -0.03407711 0.11053452
0.051215116 0.13102576 -0.039460614 -0.15343356 -0.10220906 -0.11735959 -0.14201282 0.10791843
-0.078782 -0.07760486 0.063360624 -0.112114966 -0.015839145 0.077413805 0.054467637 -0.006716097
-0.099398494 0.038124006 -0.018347109 0.09181752 -0.027911535 0.023812763 0.07826452 0.024130398
0.099401906 0.060944583 0.16270413 0.1292842 -0.33279684 -0.063300155 0.066329494 0.02996156
0.08603632 0.002558737 -0.01430257 0.07441352 -0.043841876 0.032522555 0.011702078 -0.11681779
0.17270054 -0.03738143 -0.15112846 0.11857985 0.09951144 -0.008539802 -0.07061075 -0.08180776
-0.050917327 0.040021602 0.039050702 0.1119445 0.12839007 0.1071318 -0.15311177 0.104999274
0.03430027 -0.011410277 0.06890223 -0.22400674 0.22051518 -0.04300542 -0.045354187 0.046254072
0.026485223 0.12362384 0.2015066 -0.06805311 -0.05552086 -0.012984031 -0.3759227 -0.12833063
0.061329335 0.013772345 -0.045475315 -0.0604596 0.12781455 0.076084815 -0.039767038 0.06569288
-0.15241754 0.047719073 0.16847768 0.032644793 0.12548119 -0.009071467 0.115699224 0.025366532
-0.026385328 0.07451661 -0.052101094 0.13252477 -0.17302378 -0.052334584 -0.04089447 -0.022433791
0.015578427 -0.04539934 -0.08453575 0.124351755 -0.14769727 0.024620082 0.07076717 0.0113549335
0.19895713 0.11667871 -0.21829325 0.014113429 0.036776524 -0.015998349 -0.009670099 -0.1536011
-0.06811624 0.15505591 -0.034080185 0.009885777 -0.003765437 -0.026421344 -0.041524377 0.15260412
0.014403049 0.06428735 0.07332091 -0.0032823565 0.16468772 0.098808095 -0.12393791 -0.035117846
0.14027695 -0.006843885 -0.08464904 -0.00077818887 0.048787482 -0.008985469 -0.21522462 0.14746267
-0.14632393 0.06471012 -0.03455377 -0.0052145077 0.10368337 0.35515806 0.041357227 -0.028682293
0.15526733 -0.0864398 0.12584838 0.08495039 0.05688272 0.022655604 -0.031288918 -0.0907353
-0.07905088 -0.09720412 -0.032929484 -0.023039399 -0.021448502 -0.16699392 0.11508884 -0.16100849

sequential/dense_1/MatMul f4 [16, 64]
00000000: 874e 153d d74e 61be 92ff ca3d 0e5b f9bc
00000010: 8c05 2cbe 4494 943d 2a0b a2be fb86 d53d
00000020: dea4 bb3d 6adf 22be 2b98 9bbd 8e75 d5bd
00000030: 5b10 8abc 16ff 313e cf50 41be 383e 8dbe
00000040: ae4a 0abe dde7 723d 48b9 ab3d fb7b fcbd
00000050: ad9d 823e 29dd 3b3e a84c 15be 6ed7 8fbc
00000060: 342d 25be 280b 2fbc b0c3 923d b5f2 91bd
00000070: d2c7 183e 5d3f 47be 1740 3d3e 21b7 1bbd
00000080: ea37 69be d743 4b3c c039 873e 9f14 a5bd
00000090: e817 813d 8c4e 693e 081a 943b e396 63bd
000000a0: ea36 463e bdbd 1ebc f850 c83d 51e1 bebd
000000b0: 79e4 38be b3d2 863d a169 e43d 8bec 8fbd
000000c0: 19e8 38be 9fda ac3d a39c e6bd 6500 613e
000000d0: 0d73 6abd f8c8 16be 85b8 60be a52c bcbe
000000e0: 45fe 17be 7ac1 95bd b48e 263e 125e 46be
000000f0: e727 4ebd b672 353e 29f0 d3bd 3716 38bd
00000100: 440c a9bd 0a90 82bd 0b19 69be 5c00 b9be
00000110: f31e 6a3e 75fe db3d 50d4 113d eb5d 2dbe
00000120: f9ba 7cbe 232b aebe 8c47 ee3d a53a 86bc
00000130: 5545 10be 29aa 1f3e 021b ba3e e0c3 9dbd
00000140: 8629 42be 9277 cfbe 406d 743e 864e 0d3c
00000150: 7bf0 8abe 2dfd f1be 8846 67be 11b8 883e
00000160: 8f1c 333d b55a 25be 87c8 70bd 6fb4 ae3b
00000170: 5524 87be 6f15 0c3e 184a 723e 230a 1bbe
00000180: 5f9a 5c3d ab1c 03be dfa5 9d3d bf94 88be
00000190: 5689 17bd 9a30 52be c5bf aabd df64 d9bd
000001a0: 6104 85be dd45 d2bd 0b38 493d 2b3f 28be
000001b0: 5a8b 3fbe 7434 363e 1c46 d5bd ee58 023e
000001c0: 2e40 58bb 741a 293d 29fc 833e e1fc f63d
000001d0: c2ae 50be dbec cabe 2d20 793e 5770 533d
000001e0: 97cf c2bd 76aa 5d3e 8fe5 063e 1bf2 e03d
000001f0: 5ac5 5b3e e1b1 37be bc94 79be de84 fb3d
00000200: cdea ce3c fb40 f53d cdcf e63d 6670 a83d
00000210: c8b5 ad3e 28e7 60be e101 43be b3b0 a63c
00000220: 5bc9 34be 6c86 2bbe d75d e93d fb52 92bd
00000230: 5908 6f3e 14f0 863d 66f5 5abc 7983 553e
00000240: 1e5f 29be 8771 d93c c95d 21be 45db 8cbe
00000250: 2798 553d c273 90bd 62aa d23d 8f28 4fbe
00000260: 4683 57ba 8e2d a73b 7c38 c33d 935d 923e
00000270: cab2 6c3d c18b 0f3e 37c7 e0bd f304 ac3d
00000280: 64a7 833e 90de 293d acc6 1c3e 4aa8 a2bd
00000290: 96c4 c63b cf9e 38bb 77bd c9be 5656 4bbe
000002a0: 8508 033e 37b7 313e b50c ebbd 04ff 5f3e
000002b0: 7803 a4bc 3c61 ecbc 1efb 7e3e 220b ce3d
000002c0: 9895 58be d562 65bd 08c7 31be f6e9 49be
000002d0: e906 7bbe b358 f63c d017 5d3e 9a26 f83b
000002e0: a083 a63e 8402 0a3e 92c2 19bd 2c9b 5cbe
000002f0: 7f5c a2be 73da 1f3e 5c18 3bbe 8cec 2dbe
00000300: ebab 453d a329 313d 9106 13be 7fe0 3dbe
00000310: 6ebe 4dbe 6ee6 43be fa92 ecbd 485c c53d
00000320: 3b12 57be 9c03 973c 8007 703e a5ed 993e
00000330: 00f7 a33d 5d22 283e 2e99 52be 25bb da3d
00000340: f137 28be 8fa1 e8bd dfbf 95be 04f7 82be
00000350: ca2b c13d 93a0 4a3e 0192 2abc a929 883e
00000360: ba5a 1ebe 4413 db3d a264 d6bd 52f3 a1be
00000370: 9ea9 5abd 6fc8 3dbe e5f8 5a3e 53ed 873e
00000380: 8bb1 643d 2da7 ebbd 0ca1 eaba d678 31be
00000390: 0fad debd 7b92 2abe 8af9 87be b2ba a3bd
000003a0: 2e26 7fbe b6f8 813e 19f1 663d 4983 503d
000003b0: 4d9f 843e d76f bebd 5629 f1bc 23de 7e3d
000003c0: d24d 35bc 17b2 103d 9243 db3d 4b76 81bd
000003d0: 8bd0 d83d ebea a53e d468 09be d121 bcbe
000003e0: e909 073e 3d00 09be 9e99 1cbe 9bdc ad3d
000003f0: 90b1 163c f95c 713e 770c 4cbd 3b01 56be
0.036451843 -0.22002731 0.099120274 -0.030438926 -0.16798991 0.07254842 -0.31649143 0.10426136
0.09162305 -0.15905538 -0.07597383 -0.104228124 -0.016853502 0.17382464 -0.18878482 -0.27586532
-0.1350505 0.059303153 0.08384949 -0.12328335 0.25510922 0.18346085 -0.14580023 -0.01755878
-0.16130525 -0.010683812 0.07166231 -0.07126371 0.14919975 -0.19457765 0.1848148 -0.038016442
-0.22775236 0.012406311 0.26411247 -0.08060574 0.06303388 0.2278387 0.0045197047 -0.05556382
0.19356886 -0.009688792 0.097810686 -0.093203194 -0.18055905 0.065831564 0.111529596 -0.07027539
-0.18057288 0.08440136 -0.11260345 0.21972807 -0.057238627 -0.14725101 -0.21945389 -0.3675281
-0.1484309 -0.07312293 0.16265374 -0.19371822 -0.050331023 0.1771954 -0.10348541 -0.04494306
-0.082542926 -0.063751295 -0.2276346 -0.36133087 0.22863369 0.10741893 0.035602868 -0.16930358
-0.246807 -0.34017286 0.1163474 -0.016385386 -0.14088948 0.15592255 0.3634873 -0.07703376
-0.18961152 -0.40520912 0.238698 0.0086246785 -0.27136597 -0.4726347 -0.225855 0.26702932
0.043728407 -0.16147883 -0.058784988 0.005331568 -0.26394907 0.13680051 0.23661077 -0.15140586
0.053858157 -0.12803905 0.07697653 -0.26675984 -0.036996208 -0.20526353 -0.083373584 -0.10614943
-0.25979903 -0.102672316 0.049125712 -0.16430347 -0.18705502 0.17793447 -0.10413763 0.12729236
-0.0032997238 0.041284993 0.2577832 0.120599516 -0.20379165 -0.3963383 0.2432868 0.051620807
-0.09512251 0.21647057 0.13173507 0.10983678 0.21462002 -0.17938949 -0.24373144 0.12281202
0.025258446 0.11975285 0.112701036 0.08224563 0.3392775 -0.21963179 -0.19043685 0.020347929
-0.17654936 -0.16750497 0.11394852 -0.071447335 0.23343028 0.0658876 -0.013364172 0.20850934
-0.1654019 0.026543392 -0.15758432 -0.2751104 0.052147057 -0.07053329 0.10286404 -0.20230316
-0.00082211604 0.005101866 0.09532258 0.28587016 0.057787694 0.14018156 -0.10975497 0.083993815
0.25713646 0.041472018 0.15310162 -0.07942255 0.0060659153 -0.002817083 -0.39402363 -0.19857153
0.12796219 0.17355047 -0.11477033 0.21874624 -0.020021185 -0.028854959 0.24900481 0.10060717
-0.21150815 -0.056002457 -0.1736108 -0.19718155 -0.24514355 0.030071592 0.21591115 0.007572961
0.32522297 0.13477522 -0.037539072 -0.21543568 -0.31711194 0.15610676 -0.18271011 -0.16984767
0.048259657 0.0432526 -0.14357974 -0.1854267 -0.20092174 -0.1913087 -0.11551471 0.09636742
-0.21003048 0.018434338 0.23440361 0.3006412 0.08006096 0.16419359 -0.20566246 0.10680226
-0.1642759 -0.1135894 -0.2924795 -0.25579083 0.0943218 0.19787817 -0.010410787 0.26594284
-0.15464297 0.10697034 -0.10468413 -0.3163095 -0.053384416 -0.1853349 0.21384008 0.26548252
0.05583338 -0.115064956 -0.0017900779 -0.17331252 -0.10872852 -0.1665744 -0.2655757 -0.07994594
-0.24916908 0.25385064 0.056382272 0.050906453 0.25902787 -0.092986755 -0.029438656 0.062223565
-0.011065917 0.03532609 0.107062474 -0.06321391 0.105866514 0.3240579 -0.13418895 -0.3674455
0.13187374 -0.13378997 -0.15292975 0.08489343 0.009197608 0.23570623 -0.049816575 -0.20898907
